{
  "storage" : "model.espresso.weights",
  "analyses" : {

  },
  "properties" : {

  },
  "format_version" : 200,
  "layers" : [
    {
      "pad_r" : 0,
      "fused_relu" : 1,
      "fused_tanh" : 0,
      "debug_info" : "Conv1",
      "pad_fill_mode" : 0,
      "pad_b" : 0,
      "pad_l" : 0,
      "top" : "Conv1_relu_output",
      "K" : 4,
      "blob_biases" : 1,
      "stride_x" : 2,
      "name" : "Conv1",
      "has_batch_norm" : 0,
      "type" : "convolution",
      "n_groups" : 1,
      "pad_t" : 0,
      "stride_y" : 2,
      "has_biases" : 1,
      "C" : 16,
      "bottom" : "input1",
      "weights" : {

      },
      "Nx" : 3,
      "pad_mode" : 1,
      "pad_value" : 0,
      "Ny" : 3,
      "n_parallel" : 1,
      "blob_weights_f16" : 3
    },
    {
      "pad_r" : 0,
      "fused_relu" : 1,
      "fused_tanh" : 0,
      "debug_info" : "expanded_conv_depthwise",
      "pad_fill_mode" : 0,
      "pad_b" : 0,
      "pad_l" : 0,
      "top" : "expanded_conv_depthwise_relu_output",
      "K" : 16,
      "blob_biases" : 5,
      "name" : "expanded_conv_depthwise",
      "has_batch_norm" : 0,
      "type" : "convolution",
      "n_groups" : 16,
      "pad_t" : 0,
      "has_biases" : 1,
      "C" : 16,
      "bottom" : "Conv1_relu_output",
      "weights" : {

      },
      "Nx" : 3,
      "pad_mode" : 1,
      "pad_value" : 0,
      "Ny" : 3,
      "n_parallel" : 1,
      "blob_weights_f16" : 7
    },
    {
      "pad_r" : 0,
      "fused_relu" : 0,
      "fused_tanh" : 0,
      "debug_info" : "expanded_conv_project",
      "pad_fill_mode" : 0,
      "pad_b" : 0,
      "pad_l" : 0,
      "top" : "expanded_conv_project_BN_output",
      "K" : 16,
      "blob_biases" : 9,
      "name" : "expanded_conv_project",
      "has_batch_norm" : 0,
      "type" : "convolution",
      "n_groups" : 1,
      "pad_t" : 0,
      "has_biases" : 1,
      "C" : 8,
      "bottom" : "expanded_conv_depthwise_relu_output",
      "weights" : {

      },
      "Nx" : 1,
      "pad_mode" : 1,
      "pad_value" : 0,
      "Ny" : 1,
      "n_parallel" : 1,
      "blob_weights_f16" : 11
    },
    {
      "pad_r" : 0,
      "fused_relu" : 1,
      "fused_tanh" : 0,
      "debug_info" : "block_1_expand",
      "pad_fill_mode" : 0,
      "pad_b" : 0,
      "pad_l" : 0,
      "top" : "block_1_expand_relu_output",
      "K" : 8,
      "blob_biases" : 13,
      "name" : "block_1_expand",
      "has_batch_norm" : 0,
      "type" : "convolution",
      "n_groups" : 1,
      "pad_t" : 0,
      "has_biases" : 1,
      "C" : 48,
      "bottom" : "expanded_conv_project_BN_output",
      "weights" : {

      },
      "Nx" : 1,
      "pad_mode" : 1,
      "pad_value" : 0,
      "Ny" : 1,
      "n_parallel" : 1,
      "blob_weights_f16" : 15
    },
    {
      "pad_r" : 0,
      "fused_relu" : 1,
      "fused_tanh" : 0,
      "debug_info" : "block_1_depthwise",
      "pad_fill_mode" : 0,
      "pad_b" : 0,
      "pad_l" : 0,
      "top" : "block_1_depthwise_relu_output",
      "K" : 48,
      "blob_biases" : 17,
      "stride_x" : 2,
      "name" : "block_1_depthwise",
      "has_batch_norm" : 0,
      "type" : "convolution",
      "n_groups" : 48,
      "pad_t" : 0,
      "stride_y" : 2,
      "has_biases" : 1,
      "C" : 48,
      "bottom" : "block_1_expand_relu_output",
      "weights" : {

      },
      "Nx" : 3,
      "pad_mode" : 1,
      "pad_value" : 0,
      "Ny" : 3,
      "n_parallel" : 1,
      "blob_weights_f16" : 19
    },
    {
      "pad_r" : 0,
      "fused_relu" : 0,
      "fused_tanh" : 0,
      "debug_info" : "block_1_project",
      "pad_fill_mode" : 0,
      "pad_b" : 0,
      "pad_l" : 0,
      "top" : "block_1_project_BN_output",
      "K" : 48,
      "blob_biases" : 21,
      "name" : "block_1_project",
      "has_batch_norm" : 0,
      "type" : "convolution",
      "n_groups" : 1,
      "pad_t" : 0,
      "has_biases" : 1,
      "C" : 16,
      "bottom" : "block_1_depthwise_relu_output",
      "weights" : {

      },
      "Nx" : 1,
      "pad_mode" : 1,
      "pad_value" : 0,
      "Ny" : 1,
      "n_parallel" : 1,
      "blob_weights_f16" : 23
    },
    {
      "pad_r" : 0,
      "fused_relu" : 1,
      "fused_tanh" : 0,
      "debug_info" : "block_2_expand",
      "pad_fill_mode" : 0,
      "pad_b" : 0,
      "pad_l" : 0,
      "top" : "block_2_expand_relu_output",
      "K" : 16,
      "blob_biases" : 25,
      "name" : "block_2_expand",
      "has_batch_norm" : 0,
      "type" : "convolution",
      "n_groups" : 1,
      "pad_t" : 0,
      "has_biases" : 1,
      "C" : 96,
      "bottom" : "block_1_project_BN_output",
      "weights" : {

      },
      "Nx" : 1,
      "pad_mode" : 1,
      "pad_value" : 0,
      "Ny" : 1,
      "n_parallel" : 1,
      "blob_weights_f16" : 27
    },
    {
      "pad_r" : 0,
      "fused_relu" : 1,
      "fused_tanh" : 0,
      "debug_info" : "block_2_depthwise",
      "pad_fill_mode" : 0,
      "pad_b" : 0,
      "pad_l" : 0,
      "top" : "block_2_depthwise_relu_output",
      "K" : 96,
      "blob_biases" : 29,
      "name" : "block_2_depthwise",
      "has_batch_norm" : 0,
      "type" : "convolution",
      "n_groups" : 96,
      "pad_t" : 0,
      "has_biases" : 1,
      "C" : 96,
      "bottom" : "block_2_expand_relu_output",
      "weights" : {

      },
      "Nx" : 3,
      "pad_mode" : 1,
      "pad_value" : 0,
      "Ny" : 3,
      "n_parallel" : 1,
      "blob_weights_f16" : 31
    },
    {
      "pad_r" : 0,
      "fused_relu" : 0,
      "fused_tanh" : 0,
      "debug_info" : "block_2_project",
      "pad_fill_mode" : 0,
      "pad_b" : 0,
      "pad_l" : 0,
      "top" : "block_2_project_BN_output",
      "K" : 96,
      "blob_biases" : 33,
      "name" : "block_2_project",
      "has_batch_norm" : 0,
      "type" : "convolution",
      "n_groups" : 1,
      "pad_t" : 0,
      "has_biases" : 1,
      "C" : 16,
      "bottom" : "block_2_depthwise_relu_output",
      "weights" : {

      },
      "Nx" : 1,
      "pad_mode" : 1,
      "pad_value" : 0,
      "Ny" : 1,
      "n_parallel" : 1,
      "blob_weights_f16" : 35
    },
    {
      "bottom" : "block_1_project_BN_output,block_2_project_BN_output",
      "alpha" : 1,
      "operation" : 0,
      "weights" : {

      },
      "fused_relu" : 0,
      "debug_info" : "block_2_add",
      "top" : "block_2_add_output",
      "type" : "elementwise",
      "name" : "block_2_add",
      "beta" : 0
    },
    {
      "pad_r" : 0,
      "fused_relu" : 1,
      "fused_tanh" : 0,
      "debug_info" : "block_3_expand",
      "pad_fill_mode" : 0,
      "pad_b" : 0,
      "pad_l" : 0,
      "top" : "block_3_expand_relu_output",
      "K" : 16,
      "blob_biases" : 37,
      "name" : "block_3_expand",
      "has_batch_norm" : 0,
      "type" : "convolution",
      "n_groups" : 1,
      "pad_t" : 0,
      "has_biases" : 1,
      "C" : 96,
      "bottom" : "block_2_add_output",
      "weights" : {

      },
      "Nx" : 1,
      "pad_mode" : 1,
      "pad_value" : 0,
      "Ny" : 1,
      "n_parallel" : 1,
      "blob_weights_f16" : 39
    },
    {
      "pad_r" : 0,
      "fused_relu" : 1,
      "fused_tanh" : 0,
      "debug_info" : "block_3_depthwise",
      "pad_fill_mode" : 0,
      "pad_b" : 0,
      "pad_l" : 0,
      "top" : "block_3_depthwise_relu_output",
      "K" : 96,
      "blob_biases" : 41,
      "stride_x" : 2,
      "name" : "block_3_depthwise",
      "has_batch_norm" : 0,
      "type" : "convolution",
      "n_groups" : 96,
      "pad_t" : 0,
      "stride_y" : 2,
      "has_biases" : 1,
      "C" : 96,
      "bottom" : "block_3_expand_relu_output",
      "weights" : {

      },
      "Nx" : 3,
      "pad_mode" : 1,
      "pad_value" : 0,
      "Ny" : 3,
      "n_parallel" : 1,
      "blob_weights_f16" : 43
    },
    {
      "pad_r" : 0,
      "fused_relu" : 0,
      "fused_tanh" : 0,
      "debug_info" : "block_3_project",
      "pad_fill_mode" : 0,
      "pad_b" : 0,
      "pad_l" : 0,
      "top" : "block_3_project_BN_output",
      "K" : 96,
      "blob_biases" : 45,
      "name" : "block_3_project",
      "has_batch_norm" : 0,
      "type" : "convolution",
      "n_groups" : 1,
      "pad_t" : 0,
      "has_biases" : 1,
      "C" : 16,
      "bottom" : "block_3_depthwise_relu_output",
      "weights" : {

      },
      "Nx" : 1,
      "pad_mode" : 1,
      "pad_value" : 0,
      "Ny" : 1,
      "n_parallel" : 1,
      "blob_weights_f16" : 47
    },
    {
      "pad_r" : 0,
      "fused_relu" : 1,
      "fused_tanh" : 0,
      "debug_info" : "block_4_expand",
      "pad_fill_mode" : 0,
      "pad_b" : 0,
      "pad_l" : 0,
      "top" : "block_4_expand_relu_output",
      "K" : 16,
      "blob_biases" : 49,
      "name" : "block_4_expand",
      "has_batch_norm" : 0,
      "type" : "convolution",
      "n_groups" : 1,
      "pad_t" : 0,
      "has_biases" : 1,
      "C" : 96,
      "bottom" : "block_3_project_BN_output",
      "weights" : {

      },
      "Nx" : 1,
      "pad_mode" : 1,
      "pad_value" : 0,
      "Ny" : 1,
      "n_parallel" : 1,
      "blob_weights_f16" : 51
    },
    {
      "pad_r" : 0,
      "fused_relu" : 1,
      "fused_tanh" : 0,
      "debug_info" : "block_4_depthwise",
      "pad_fill_mode" : 0,
      "pad_b" : 0,
      "pad_l" : 0,
      "top" : "block_4_depthwise_relu_output",
      "K" : 96,
      "blob_biases" : 53,
      "name" : "block_4_depthwise",
      "has_batch_norm" : 0,
      "type" : "convolution",
      "n_groups" : 96,
      "pad_t" : 0,
      "has_biases" : 1,
      "C" : 96,
      "bottom" : "block_4_expand_relu_output",
      "weights" : {

      },
      "Nx" : 3,
      "pad_mode" : 1,
      "pad_value" : 0,
      "Ny" : 3,
      "n_parallel" : 1,
      "blob_weights_f16" : 55
    },
    {
      "pad_r" : 0,
      "fused_relu" : 0,
      "fused_tanh" : 0,
      "debug_info" : "block_4_project",
      "pad_fill_mode" : 0,
      "pad_b" : 0,
      "pad_l" : 0,
      "top" : "block_4_project_BN_output",
      "K" : 96,
      "blob_biases" : 57,
      "name" : "block_4_project",
      "has_batch_norm" : 0,
      "type" : "convolution",
      "n_groups" : 1,
      "pad_t" : 0,
      "has_biases" : 1,
      "C" : 16,
      "bottom" : "block_4_depthwise_relu_output",
      "weights" : {

      },
      "Nx" : 1,
      "pad_mode" : 1,
      "pad_value" : 0,
      "Ny" : 1,
      "n_parallel" : 1,
      "blob_weights_f16" : 59
    },
    {
      "bottom" : "block_3_project_BN_output,block_4_project_BN_output",
      "alpha" : 1,
      "operation" : 0,
      "weights" : {

      },
      "fused_relu" : 0,
      "debug_info" : "block_4_add",
      "top" : "block_4_add_output",
      "type" : "elementwise",
      "name" : "block_4_add",
      "beta" : 0
    },
    {
      "pad_r" : 0,
      "fused_relu" : 1,
      "fused_tanh" : 0,
      "debug_info" : "block_5_expand",
      "pad_fill_mode" : 0,
      "pad_b" : 0,
      "pad_l" : 0,
      "top" : "block_5_expand_relu_output",
      "K" : 16,
      "blob_biases" : 61,
      "name" : "block_5_expand",
      "has_batch_norm" : 0,
      "type" : "convolution",
      "n_groups" : 1,
      "pad_t" : 0,
      "has_biases" : 1,
      "C" : 96,
      "bottom" : "block_4_add_output",
      "weights" : {

      },
      "Nx" : 1,
      "pad_mode" : 1,
      "pad_value" : 0,
      "Ny" : 1,
      "n_parallel" : 1,
      "blob_weights_f16" : 63
    },
    {
      "pad_r" : 0,
      "fused_relu" : 1,
      "fused_tanh" : 0,
      "debug_info" : "block_5_depthwise",
      "pad_fill_mode" : 0,
      "pad_b" : 0,
      "pad_l" : 0,
      "top" : "block_5_depthwise_relu_output",
      "K" : 96,
      "blob_biases" : 65,
      "name" : "block_5_depthwise",
      "has_batch_norm" : 0,
      "type" : "convolution",
      "n_groups" : 96,
      "pad_t" : 0,
      "has_biases" : 1,
      "C" : 96,
      "bottom" : "block_5_expand_relu_output",
      "weights" : {

      },
      "Nx" : 3,
      "pad_mode" : 1,
      "pad_value" : 0,
      "Ny" : 3,
      "n_parallel" : 1,
      "blob_weights_f16" : 67
    },
    {
      "pad_r" : 0,
      "fused_relu" : 0,
      "fused_tanh" : 0,
      "debug_info" : "block_5_project",
      "pad_fill_mode" : 0,
      "pad_b" : 0,
      "pad_l" : 0,
      "top" : "block_5_project_BN_output",
      "K" : 96,
      "blob_biases" : 69,
      "name" : "block_5_project",
      "has_batch_norm" : 0,
      "type" : "convolution",
      "n_groups" : 1,
      "pad_t" : 0,
      "has_biases" : 1,
      "C" : 16,
      "bottom" : "block_5_depthwise_relu_output",
      "weights" : {

      },
      "Nx" : 1,
      "pad_mode" : 1,
      "pad_value" : 0,
      "Ny" : 1,
      "n_parallel" : 1,
      "blob_weights_f16" : 71
    },
    {
      "bottom" : "block_4_add_output,block_5_project_BN_output",
      "alpha" : 1,
      "operation" : 0,
      "weights" : {

      },
      "fused_relu" : 0,
      "debug_info" : "block_5_add",
      "top" : "block_5_add_output",
      "type" : "elementwise",
      "name" : "block_5_add",
      "beta" : 0
    },
    {
      "pad_r" : 0,
      "fused_relu" : 1,
      "fused_tanh" : 0,
      "debug_info" : "block_6_expand",
      "pad_fill_mode" : 0,
      "pad_b" : 0,
      "pad_l" : 0,
      "top" : "block_6_expand_relu_output",
      "K" : 16,
      "blob_biases" : 73,
      "name" : "block_6_expand",
      "has_batch_norm" : 0,
      "type" : "convolution",
      "n_groups" : 1,
      "pad_t" : 0,
      "has_biases" : 1,
      "C" : 96,
      "bottom" : "block_5_add_output",
      "weights" : {

      },
      "Nx" : 1,
      "pad_mode" : 1,
      "pad_value" : 0,
      "Ny" : 1,
      "n_parallel" : 1,
      "blob_weights_f16" : 75
    },
    {
      "pad_r" : 0,
      "fused_relu" : 1,
      "fused_tanh" : 0,
      "debug_info" : "block_6_depthwise",
      "pad_fill_mode" : 0,
      "pad_b" : 0,
      "pad_l" : 0,
      "top" : "block_6_depthwise_relu_output",
      "K" : 96,
      "blob_biases" : 77,
      "stride_x" : 2,
      "name" : "block_6_depthwise",
      "has_batch_norm" : 0,
      "type" : "convolution",
      "n_groups" : 96,
      "pad_t" : 0,
      "stride_y" : 2,
      "has_biases" : 1,
      "C" : 96,
      "bottom" : "block_6_expand_relu_output",
      "weights" : {

      },
      "Nx" : 3,
      "pad_mode" : 1,
      "pad_value" : 0,
      "Ny" : 3,
      "n_parallel" : 1,
      "blob_weights_f16" : 79
    },
    {
      "pad_r" : 0,
      "fused_relu" : 0,
      "fused_tanh" : 0,
      "debug_info" : "block_6_project",
      "pad_fill_mode" : 0,
      "pad_b" : 0,
      "pad_l" : 0,
      "top" : "block_6_project_BN_output",
      "K" : 96,
      "blob_biases" : 81,
      "name" : "block_6_project",
      "has_batch_norm" : 0,
      "type" : "convolution",
      "n_groups" : 1,
      "pad_t" : 0,
      "has_biases" : 1,
      "C" : 32,
      "bottom" : "block_6_depthwise_relu_output",
      "weights" : {

      },
      "Nx" : 1,
      "pad_mode" : 1,
      "pad_value" : 0,
      "Ny" : 1,
      "n_parallel" : 1,
      "blob_weights_f16" : 83
    },
    {
      "pad_r" : 0,
      "fused_relu" : 1,
      "fused_tanh" : 0,
      "debug_info" : "block_7_expand",
      "pad_fill_mode" : 0,
      "pad_b" : 0,
      "pad_l" : 0,
      "top" : "block_7_expand_relu_output",
      "K" : 32,
      "blob_biases" : 85,
      "name" : "block_7_expand",
      "has_batch_norm" : 0,
      "type" : "convolution",
      "n_groups" : 1,
      "pad_t" : 0,
      "has_biases" : 1,
      "C" : 192,
      "bottom" : "block_6_project_BN_output",
      "weights" : {

      },
      "Nx" : 1,
      "pad_mode" : 1,
      "pad_value" : 0,
      "Ny" : 1,
      "n_parallel" : 1,
      "blob_weights_f16" : 87
    },
    {
      "pad_r" : 0,
      "fused_relu" : 1,
      "fused_tanh" : 0,
      "debug_info" : "block_7_depthwise",
      "pad_fill_mode" : 0,
      "pad_b" : 0,
      "pad_l" : 0,
      "top" : "block_7_depthwise_relu_output",
      "K" : 192,
      "blob_biases" : 89,
      "name" : "block_7_depthwise",
      "has_batch_norm" : 0,
      "type" : "convolution",
      "n_groups" : 192,
      "pad_t" : 0,
      "has_biases" : 1,
      "C" : 192,
      "bottom" : "block_7_expand_relu_output",
      "weights" : {

      },
      "Nx" : 3,
      "pad_mode" : 1,
      "pad_value" : 0,
      "Ny" : 3,
      "n_parallel" : 1,
      "blob_weights_f16" : 91
    },
    {
      "pad_r" : 0,
      "fused_relu" : 0,
      "fused_tanh" : 0,
      "debug_info" : "block_7_project",
      "pad_fill_mode" : 0,
      "pad_b" : 0,
      "pad_l" : 0,
      "top" : "block_7_project_BN_output",
      "K" : 192,
      "blob_biases" : 93,
      "name" : "block_7_project",
      "has_batch_norm" : 0,
      "type" : "convolution",
      "n_groups" : 1,
      "pad_t" : 0,
      "has_biases" : 1,
      "C" : 32,
      "bottom" : "block_7_depthwise_relu_output",
      "weights" : {

      },
      "Nx" : 1,
      "pad_mode" : 1,
      "pad_value" : 0,
      "Ny" : 1,
      "n_parallel" : 1,
      "blob_weights_f16" : 95
    },
    {
      "bottom" : "block_6_project_BN_output,block_7_project_BN_output",
      "alpha" : 1,
      "operation" : 0,
      "weights" : {

      },
      "fused_relu" : 0,
      "debug_info" : "block_7_add",
      "top" : "block_7_add_output",
      "type" : "elementwise",
      "name" : "block_7_add",
      "beta" : 0
    },
    {
      "pad_r" : 0,
      "fused_relu" : 1,
      "fused_tanh" : 0,
      "debug_info" : "block_8_expand",
      "pad_fill_mode" : 0,
      "pad_b" : 0,
      "pad_l" : 0,
      "top" : "block_8_expand_relu_output",
      "K" : 32,
      "blob_biases" : 97,
      "name" : "block_8_expand",
      "has_batch_norm" : 0,
      "type" : "convolution",
      "n_groups" : 1,
      "pad_t" : 0,
      "has_biases" : 1,
      "C" : 192,
      "bottom" : "block_7_add_output",
      "weights" : {

      },
      "Nx" : 1,
      "pad_mode" : 1,
      "pad_value" : 0,
      "Ny" : 1,
      "n_parallel" : 1,
      "blob_weights_f16" : 99
    },
    {
      "pad_r" : 0,
      "fused_relu" : 1,
      "fused_tanh" : 0,
      "debug_info" : "block_8_depthwise",
      "pad_fill_mode" : 0,
      "pad_b" : 0,
      "pad_l" : 0,
      "top" : "block_8_depthwise_relu_output",
      "K" : 192,
      "blob_biases" : 101,
      "name" : "block_8_depthwise",
      "has_batch_norm" : 0,
      "type" : "convolution",
      "n_groups" : 192,
      "pad_t" : 0,
      "has_biases" : 1,
      "C" : 192,
      "bottom" : "block_8_expand_relu_output",
      "weights" : {

      },
      "Nx" : 3,
      "pad_mode" : 1,
      "pad_value" : 0,
      "Ny" : 3,
      "n_parallel" : 1,
      "blob_weights_f16" : 103
    },
    {
      "pad_r" : 0,
      "fused_relu" : 0,
      "fused_tanh" : 0,
      "debug_info" : "block_8_project",
      "pad_fill_mode" : 0,
      "pad_b" : 0,
      "pad_l" : 0,
      "top" : "block_8_project_BN_output",
      "K" : 192,
      "blob_biases" : 105,
      "name" : "block_8_project",
      "has_batch_norm" : 0,
      "type" : "convolution",
      "n_groups" : 1,
      "pad_t" : 0,
      "has_biases" : 1,
      "C" : 32,
      "bottom" : "block_8_depthwise_relu_output",
      "weights" : {

      },
      "Nx" : 1,
      "pad_mode" : 1,
      "pad_value" : 0,
      "Ny" : 1,
      "n_parallel" : 1,
      "blob_weights_f16" : 107
    },
    {
      "bottom" : "block_7_add_output,block_8_project_BN_output",
      "alpha" : 1,
      "operation" : 0,
      "weights" : {

      },
      "fused_relu" : 0,
      "debug_info" : "block_8_add",
      "top" : "block_8_add_output",
      "type" : "elementwise",
      "name" : "block_8_add",
      "beta" : 0
    },
    {
      "pad_r" : 0,
      "fused_relu" : 1,
      "fused_tanh" : 0,
      "debug_info" : "block_9_expand",
      "pad_fill_mode" : 0,
      "pad_b" : 0,
      "pad_l" : 0,
      "top" : "block_9_expand_relu_output",
      "K" : 32,
      "blob_biases" : 109,
      "name" : "block_9_expand",
      "has_batch_norm" : 0,
      "type" : "convolution",
      "n_groups" : 1,
      "pad_t" : 0,
      "has_biases" : 1,
      "C" : 192,
      "bottom" : "block_8_add_output",
      "weights" : {

      },
      "Nx" : 1,
      "pad_mode" : 1,
      "pad_value" : 0,
      "Ny" : 1,
      "n_parallel" : 1,
      "blob_weights_f16" : 111
    },
    {
      "pad_r" : 0,
      "fused_relu" : 1,
      "fused_tanh" : 0,
      "debug_info" : "block_9_depthwise",
      "pad_fill_mode" : 0,
      "pad_b" : 0,
      "pad_l" : 0,
      "top" : "block_9_depthwise_relu_output",
      "K" : 192,
      "blob_biases" : 113,
      "name" : "block_9_depthwise",
      "has_batch_norm" : 0,
      "type" : "convolution",
      "n_groups" : 192,
      "pad_t" : 0,
      "has_biases" : 1,
      "C" : 192,
      "bottom" : "block_9_expand_relu_output",
      "weights" : {

      },
      "Nx" : 3,
      "pad_mode" : 1,
      "pad_value" : 0,
      "Ny" : 3,
      "n_parallel" : 1,
      "blob_weights_f16" : 115
    },
    {
      "pad_r" : 0,
      "fused_relu" : 0,
      "fused_tanh" : 0,
      "debug_info" : "block_9_project",
      "pad_fill_mode" : 0,
      "pad_b" : 0,
      "pad_l" : 0,
      "top" : "block_9_project_BN_output",
      "K" : 192,
      "blob_biases" : 117,
      "name" : "block_9_project",
      "has_batch_norm" : 0,
      "type" : "convolution",
      "n_groups" : 1,
      "pad_t" : 0,
      "has_biases" : 1,
      "C" : 32,
      "bottom" : "block_9_depthwise_relu_output",
      "weights" : {

      },
      "Nx" : 1,
      "pad_mode" : 1,
      "pad_value" : 0,
      "Ny" : 1,
      "n_parallel" : 1,
      "blob_weights_f16" : 119
    },
    {
      "bottom" : "block_8_add_output,block_9_project_BN_output",
      "alpha" : 1,
      "operation" : 0,
      "weights" : {

      },
      "fused_relu" : 0,
      "debug_info" : "block_9_add",
      "top" : "block_9_add_output",
      "type" : "elementwise",
      "name" : "block_9_add",
      "beta" : 0
    },
    {
      "pad_r" : 0,
      "fused_relu" : 1,
      "fused_tanh" : 0,
      "debug_info" : "block_10_expand",
      "pad_fill_mode" : 0,
      "pad_b" : 0,
      "pad_l" : 0,
      "top" : "block_10_expand_relu_output",
      "K" : 32,
      "blob_biases" : 121,
      "name" : "block_10_expand",
      "has_batch_norm" : 0,
      "type" : "convolution",
      "n_groups" : 1,
      "pad_t" : 0,
      "has_biases" : 1,
      "C" : 192,
      "bottom" : "block_9_add_output",
      "weights" : {

      },
      "Nx" : 1,
      "pad_mode" : 1,
      "pad_value" : 0,
      "Ny" : 1,
      "n_parallel" : 1,
      "blob_weights_f16" : 123
    },
    {
      "pad_r" : 0,
      "fused_relu" : 1,
      "fused_tanh" : 0,
      "debug_info" : "block_10_depthwise",
      "pad_fill_mode" : 0,
      "pad_b" : 0,
      "pad_l" : 0,
      "top" : "block_10_depthwise_relu_output",
      "K" : 192,
      "blob_biases" : 125,
      "name" : "block_10_depthwise",
      "has_batch_norm" : 0,
      "type" : "convolution",
      "n_groups" : 192,
      "pad_t" : 0,
      "has_biases" : 1,
      "C" : 192,
      "bottom" : "block_10_expand_relu_output",
      "weights" : {

      },
      "Nx" : 3,
      "pad_mode" : 1,
      "pad_value" : 0,
      "Ny" : 3,
      "n_parallel" : 1,
      "blob_weights_f16" : 127
    },
    {
      "pad_r" : 0,
      "fused_relu" : 0,
      "fused_tanh" : 0,
      "debug_info" : "block_10_project",
      "pad_fill_mode" : 0,
      "pad_b" : 0,
      "pad_l" : 0,
      "top" : "block_10_project_BN_output",
      "K" : 192,
      "blob_biases" : 129,
      "name" : "block_10_project",
      "has_batch_norm" : 0,
      "type" : "convolution",
      "n_groups" : 1,
      "pad_t" : 0,
      "has_biases" : 1,
      "C" : 48,
      "bottom" : "block_10_depthwise_relu_output",
      "weights" : {

      },
      "Nx" : 1,
      "pad_mode" : 1,
      "pad_value" : 0,
      "Ny" : 1,
      "n_parallel" : 1,
      "blob_weights_f16" : 131
    },
    {
      "pad_r" : 0,
      "fused_relu" : 1,
      "fused_tanh" : 0,
      "debug_info" : "block_11_expand",
      "pad_fill_mode" : 0,
      "pad_b" : 0,
      "pad_l" : 0,
      "top" : "block_11_expand_relu_output",
      "K" : 48,
      "blob_biases" : 133,
      "name" : "block_11_expand",
      "has_batch_norm" : 0,
      "type" : "convolution",
      "n_groups" : 1,
      "pad_t" : 0,
      "has_biases" : 1,
      "C" : 288,
      "bottom" : "block_10_project_BN_output",
      "weights" : {

      },
      "Nx" : 1,
      "pad_mode" : 1,
      "pad_value" : 0,
      "Ny" : 1,
      "n_parallel" : 1,
      "blob_weights_f16" : 135
    },
    {
      "pad_r" : 0,
      "fused_relu" : 1,
      "fused_tanh" : 0,
      "debug_info" : "block_11_depthwise",
      "pad_fill_mode" : 0,
      "pad_b" : 0,
      "pad_l" : 0,
      "top" : "block_11_depthwise_relu_output",
      "K" : 288,
      "blob_biases" : 137,
      "name" : "block_11_depthwise",
      "has_batch_norm" : 0,
      "type" : "convolution",
      "n_groups" : 288,
      "pad_t" : 0,
      "has_biases" : 1,
      "C" : 288,
      "bottom" : "block_11_expand_relu_output",
      "weights" : {

      },
      "Nx" : 3,
      "pad_mode" : 1,
      "pad_value" : 0,
      "Ny" : 3,
      "n_parallel" : 1,
      "blob_weights_f16" : 139
    },
    {
      "pad_r" : 0,
      "fused_relu" : 0,
      "fused_tanh" : 0,
      "debug_info" : "block_11_project",
      "pad_fill_mode" : 0,
      "pad_b" : 0,
      "pad_l" : 0,
      "top" : "block_11_project_BN_output",
      "K" : 288,
      "blob_biases" : 141,
      "name" : "block_11_project",
      "has_batch_norm" : 0,
      "type" : "convolution",
      "n_groups" : 1,
      "pad_t" : 0,
      "has_biases" : 1,
      "C" : 48,
      "bottom" : "block_11_depthwise_relu_output",
      "weights" : {

      },
      "Nx" : 1,
      "pad_mode" : 1,
      "pad_value" : 0,
      "Ny" : 1,
      "n_parallel" : 1,
      "blob_weights_f16" : 143
    },
    {
      "bottom" : "block_10_project_BN_output,block_11_project_BN_output",
      "alpha" : 1,
      "operation" : 0,
      "weights" : {

      },
      "fused_relu" : 0,
      "debug_info" : "block_11_add",
      "top" : "block_11_add_output",
      "type" : "elementwise",
      "name" : "block_11_add",
      "beta" : 0
    },
    {
      "pad_r" : 0,
      "fused_relu" : 1,
      "fused_tanh" : 0,
      "debug_info" : "block_12_expand",
      "pad_fill_mode" : 0,
      "pad_b" : 0,
      "pad_l" : 0,
      "top" : "block_12_expand_relu_output",
      "K" : 48,
      "blob_biases" : 145,
      "name" : "block_12_expand",
      "has_batch_norm" : 0,
      "type" : "convolution",
      "n_groups" : 1,
      "pad_t" : 0,
      "has_biases" : 1,
      "C" : 288,
      "bottom" : "block_11_add_output",
      "weights" : {

      },
      "Nx" : 1,
      "pad_mode" : 1,
      "pad_value" : 0,
      "Ny" : 1,
      "n_parallel" : 1,
      "blob_weights_f16" : 147
    },
    {
      "pad_r" : 0,
      "fused_relu" : 1,
      "fused_tanh" : 0,
      "debug_info" : "block_12_depthwise",
      "pad_fill_mode" : 0,
      "pad_b" : 0,
      "pad_l" : 0,
      "top" : "block_12_depthwise_relu_output",
      "K" : 288,
      "blob_biases" : 149,
      "name" : "block_12_depthwise",
      "has_batch_norm" : 0,
      "type" : "convolution",
      "n_groups" : 288,
      "pad_t" : 0,
      "has_biases" : 1,
      "C" : 288,
      "bottom" : "block_12_expand_relu_output",
      "weights" : {

      },
      "Nx" : 3,
      "pad_mode" : 1,
      "pad_value" : 0,
      "Ny" : 3,
      "n_parallel" : 1,
      "blob_weights_f16" : 151
    },
    {
      "pad_r" : 0,
      "fused_relu" : 0,
      "fused_tanh" : 0,
      "debug_info" : "block_12_project",
      "pad_fill_mode" : 0,
      "pad_b" : 0,
      "pad_l" : 0,
      "top" : "block_12_project_BN_output",
      "K" : 288,
      "blob_biases" : 153,
      "name" : "block_12_project",
      "has_batch_norm" : 0,
      "type" : "convolution",
      "n_groups" : 1,
      "pad_t" : 0,
      "has_biases" : 1,
      "C" : 48,
      "bottom" : "block_12_depthwise_relu_output",
      "weights" : {

      },
      "Nx" : 1,
      "pad_mode" : 1,
      "pad_value" : 0,
      "Ny" : 1,
      "n_parallel" : 1,
      "blob_weights_f16" : 155
    },
    {
      "bottom" : "block_11_add_output,block_12_project_BN_output",
      "alpha" : 1,
      "operation" : 0,
      "weights" : {

      },
      "fused_relu" : 0,
      "debug_info" : "block_12_add",
      "top" : "block_12_add_output",
      "type" : "elementwise",
      "name" : "block_12_add",
      "beta" : 0
    },
    {
      "bottom" : "block_12_add_output",
      "target_size_w" : 32,
      "spatial_scale" : 1,
      "weights" : {

      },
      "grid_sampling_mode" : 1,
      "debug_info" : "up_sampling2d_1",
      "target_size_h" : 18,
      "top" : "up_sampling2d_1_output",
      "type" : "crop_and_resize",
      "name" : "up_sampling2d_1",
      "crop_index_mode" : 0
    },
    {
      "weights" : {

      },
      "debug_info" : "concatenate_1",
      "top" : "concatenate_1_output",
      "type" : "concat",
      "name" : "concatenate_1",
      "bottom" : "up_sampling2d_1_output,block_5_add_output"
    },
    {
      "pad_r" : 0,
      "fused_relu" : 0,
      "fused_tanh" : 0,
      "debug_info" : "conv2d_1",
      "pad_fill_mode" : 0,
      "pad_b" : 0,
      "pad_l" : 0,
      "top" : "batch_normalization_1_output",
      "K" : 64,
      "blob_biases" : 157,
      "name" : "conv2d_1",
      "has_batch_norm" : 0,
      "type" : "convolution",
      "n_groups" : 1,
      "pad_t" : 0,
      "has_biases" : 1,
      "C" : 64,
      "bottom" : "concatenate_1_output",
      "weights" : {

      },
      "Nx" : 1,
      "pad_mode" : 0,
      "pad_value" : 0,
      "Ny" : 1,
      "n_parallel" : 1,
      "blob_weights_f16" : 159
    },
    {
      "pad_r" : 0,
      "fused_relu" : 1,
      "fused_tanh" : 0,
      "debug_info" : "depthwise_conv2d_1",
      "pad_fill_mode" : 0,
      "pad_b" : 0,
      "pad_l" : 0,
      "top" : "activation_1_output",
      "K" : 64,
      "blob_biases" : 161,
      "name" : "depthwise_conv2d_1",
      "has_batch_norm" : 0,
      "type" : "convolution",
      "n_groups" : 64,
      "pad_t" : 0,
      "has_biases" : 1,
      "C" : 64,
      "bottom" : "batch_normalization_1_output",
      "weights" : {

      },
      "Nx" : 3,
      "pad_mode" : 1,
      "pad_value" : 0,
      "Ny" : 3,
      "n_parallel" : 1,
      "blob_weights_f16" : 163
    },
    {
      "pad_r" : 0,
      "fused_relu" : 1,
      "fused_tanh" : 0,
      "debug_info" : "conv2d_2",
      "pad_fill_mode" : 0,
      "pad_b" : 0,
      "pad_l" : 0,
      "top" : "activation_2_output",
      "K" : 64,
      "blob_biases" : 165,
      "name" : "conv2d_2",
      "has_batch_norm" : 0,
      "type" : "convolution",
      "n_groups" : 1,
      "pad_t" : 0,
      "has_biases" : 1,
      "C" : 64,
      "bottom" : "activation_1_output",
      "weights" : {

      },
      "Nx" : 1,
      "pad_mode" : 0,
      "pad_value" : 0,
      "Ny" : 1,
      "n_parallel" : 1,
      "blob_weights_f16" : 167
    },
    {
      "pad_r" : 0,
      "fused_relu" : 1,
      "fused_tanh" : 0,
      "debug_info" : "depthwise_conv2d_2",
      "pad_fill_mode" : 0,
      "pad_b" : 0,
      "pad_l" : 0,
      "top" : "activation_3_output",
      "K" : 64,
      "blob_biases" : 169,
      "name" : "depthwise_conv2d_2",
      "has_batch_norm" : 0,
      "type" : "convolution",
      "n_groups" : 64,
      "pad_t" : 0,
      "has_biases" : 1,
      "C" : 64,
      "bottom" : "activation_2_output",
      "weights" : {

      },
      "Nx" : 3,
      "pad_mode" : 1,
      "pad_value" : 0,
      "Ny" : 3,
      "n_parallel" : 1,
      "blob_weights_f16" : 171
    },
    {
      "bottom" : "batch_normalization_1_output,activation_3_output",
      "alpha" : 1,
      "operation" : 0,
      "weights" : {

      },
      "fused_relu" : 0,
      "debug_info" : "add_1",
      "top" : "add_1_output",
      "type" : "elementwise",
      "name" : "add_1",
      "beta" : 0
    },
    {
      "bottom" : "add_1_output",
      "target_size_w" : 64,
      "spatial_scale" : 1,
      "weights" : {

      },
      "grid_sampling_mode" : 1,
      "debug_info" : "up_sampling2d_2",
      "target_size_h" : 36,
      "top" : "up_sampling2d_2_output",
      "type" : "crop_and_resize",
      "name" : "up_sampling2d_2",
      "crop_index_mode" : 0
    },
    {
      "pad_r" : 0,
      "fused_relu" : 0,
      "fused_tanh" : 0,
      "debug_info" : "conv2d_3",
      "pad_fill_mode" : 0,
      "pad_b" : 0,
      "pad_l" : 0,
      "top" : "conv2d_3_output",
      "K" : 64,
      "blob_biases" : 173,
      "name" : "conv2d_3",
      "has_batch_norm" : 0,
      "type" : "convolution",
      "n_groups" : 1,
      "pad_t" : 0,
      "has_biases" : 1,
      "C" : 16,
      "bottom" : "up_sampling2d_2_output",
      "weights" : {

      },
      "Nx" : 1,
      "pad_mode" : 0,
      "pad_value" : 0,
      "Ny" : 1,
      "n_parallel" : 1,
      "blob_weights_f16" : 175
    },
    {
      "weights" : {

      },
      "debug_info" : "concatenate_2",
      "top" : "concatenate_2_output",
      "type" : "concat",
      "name" : "concatenate_2",
      "bottom" : "conv2d_3_output,block_2_add_output"
    },
    {
      "pad_r" : 0,
      "debug_info" : "average_pooling2d_1",
      "pad_fill_mode" : 0,
      "pad_b" : 0,
      "pad_l" : 0,
      "size_x" : 64,
      "top" : "average_pooling2d_1_output",
      "top_shape_style" : 0,
      "stride_x" : 64,
      "avg_or_max" : 0,
      "average_count_exclude_padding" : 1,
      "type" : "pool",
      "name" : "average_pooling2d_1",
      "pad_t" : 0,
      "stride_y" : 36,
      "bottom" : "concatenate_2_output",
      "weights" : {

      },
      "pad_mode" : 2,
      "size_y" : 36,
      "pad_value" : 0
    },
    {
      "pad_r" : 0,
      "fused_relu" : 1,
      "fused_tanh" : 0,
      "debug_info" : "conv2d_4",
      "pad_fill_mode" : 0,
      "pad_b" : 0,
      "pad_l" : 0,
      "top" : "activation_4_output",
      "K" : 32,
      "blob_biases" : 177,
      "name" : "conv2d_4",
      "has_batch_norm" : 0,
      "type" : "convolution",
      "n_groups" : 1,
      "pad_t" : 0,
      "has_biases" : 1,
      "C" : 16,
      "bottom" : "average_pooling2d_1_output",
      "weights" : {

      },
      "Nx" : 1,
      "pad_mode" : 0,
      "pad_value" : 0,
      "Ny" : 1,
      "n_parallel" : 1,
      "blob_weights_f16" : 179
    },
    {
      "pad_r" : 0,
      "fused_relu" : 0,
      "fused_tanh" : 0,
      "debug_info" : "conv2d_5",
      "pad_fill_mode" : 0,
      "pad_b" : 0,
      "pad_l" : 0,
      "top" : "conv2d_5_output",
      "K" : 16,
      "blob_biases" : 181,
      "name" : "conv2d_5",
      "has_batch_norm" : 0,
      "type" : "convolution",
      "n_groups" : 1,
      "pad_t" : 0,
      "has_biases" : 1,
      "C" : 16,
      "bottom" : "activation_4_output",
      "weights" : {

      },
      "Nx" : 1,
      "pad_mode" : 0,
      "pad_value" : 0,
      "Ny" : 1,
      "n_parallel" : 1,
      "blob_weights_f16" : 183
    },
    {
      "bottom" : "conv2d_5_output",
      "weights" : {

      },
      "mode" : 3,
      "debug_info" : "activation_5",
      "top" : "activation_5_output",
      "type" : "activation",
      "name" : "activation_5"
    },
    {
      "bottom" : "activation_5_output,block_2_add_output",
      "alpha" : 1,
      "operation" : 1,
      "weights" : {

      },
      "fused_relu" : 0,
      "debug_info" : "multiply_1",
      "top" : "multiply_1_output",
      "type" : "elementwise",
      "name" : "multiply_1",
      "beta" : 0
    },
    {
      "bottom" : "conv2d_3_output,multiply_1_output",
      "alpha" : 1,
      "operation" : 0,
      "weights" : {

      },
      "fused_relu" : 0,
      "debug_info" : "add_2",
      "top" : "add_2_output",
      "type" : "elementwise",
      "name" : "add_2",
      "beta" : 0
    },
    {
      "pad_r" : 0,
      "fused_relu" : 0,
      "fused_tanh" : 0,
      "debug_info" : "conv2d_6",
      "pad_fill_mode" : 0,
      "pad_b" : 0,
      "pad_l" : 0,
      "top" : "batch_normalization_5_output",
      "K" : 16,
      "blob_biases" : 185,
      "name" : "conv2d_6",
      "has_batch_norm" : 0,
      "type" : "convolution",
      "n_groups" : 1,
      "pad_t" : 0,
      "has_biases" : 1,
      "C" : 16,
      "bottom" : "add_2_output",
      "weights" : {

      },
      "Nx" : 1,
      "pad_mode" : 0,
      "pad_value" : 0,
      "Ny" : 1,
      "n_parallel" : 1,
      "blob_weights_f16" : 187
    },
    {
      "pad_r" : 0,
      "fused_relu" : 1,
      "fused_tanh" : 0,
      "debug_info" : "depthwise_conv2d_3",
      "pad_fill_mode" : 0,
      "pad_b" : 0,
      "pad_l" : 0,
      "top" : "activation_6_output",
      "K" : 16,
      "blob_biases" : 189,
      "name" : "depthwise_conv2d_3",
      "has_batch_norm" : 0,
      "type" : "convolution",
      "n_groups" : 16,
      "pad_t" : 0,
      "has_biases" : 1,
      "C" : 16,
      "bottom" : "batch_normalization_5_output",
      "weights" : {

      },
      "Nx" : 3,
      "pad_mode" : 1,
      "pad_value" : 0,
      "Ny" : 3,
      "n_parallel" : 1,
      "blob_weights_f16" : 191
    },
    {
      "pad_r" : 0,
      "fused_relu" : 1,
      "fused_tanh" : 0,
      "debug_info" : "conv2d_7",
      "pad_fill_mode" : 0,
      "pad_b" : 0,
      "pad_l" : 0,
      "top" : "activation_7_output",
      "K" : 16,
      "blob_biases" : 193,
      "name" : "conv2d_7",
      "has_batch_norm" : 0,
      "type" : "convolution",
      "n_groups" : 1,
      "pad_t" : 0,
      "has_biases" : 1,
      "C" : 16,
      "bottom" : "activation_6_output",
      "weights" : {

      },
      "Nx" : 1,
      "pad_mode" : 0,
      "pad_value" : 0,
      "Ny" : 1,
      "n_parallel" : 1,
      "blob_weights_f16" : 195
    },
    {
      "pad_r" : 0,
      "fused_relu" : 1,
      "fused_tanh" : 0,
      "debug_info" : "depthwise_conv2d_4",
      "pad_fill_mode" : 0,
      "pad_b" : 0,
      "pad_l" : 0,
      "top" : "activation_8_output",
      "K" : 16,
      "blob_biases" : 197,
      "name" : "depthwise_conv2d_4",
      "has_batch_norm" : 0,
      "type" : "convolution",
      "n_groups" : 16,
      "pad_t" : 0,
      "has_biases" : 1,
      "C" : 16,
      "bottom" : "activation_7_output",
      "weights" : {

      },
      "Nx" : 3,
      "pad_mode" : 1,
      "pad_value" : 0,
      "Ny" : 3,
      "n_parallel" : 1,
      "blob_weights_f16" : 199
    },
    {
      "bottom" : "batch_normalization_5_output,activation_8_output",
      "alpha" : 1,
      "operation" : 0,
      "weights" : {

      },
      "fused_relu" : 0,
      "debug_info" : "add_3",
      "top" : "add_3_output",
      "type" : "elementwise",
      "name" : "add_3",
      "beta" : 0
    },
    {
      "bottom" : "add_3_output",
      "target_size_w" : 128,
      "spatial_scale" : 1,
      "weights" : {

      },
      "grid_sampling_mode" : 1,
      "debug_info" : "up_sampling2d_3",
      "target_size_h" : 72,
      "top" : "up_sampling2d_3_output",
      "type" : "crop_and_resize",
      "name" : "up_sampling2d_3",
      "crop_index_mode" : 0
    },
    {
      "pad_r" : 0,
      "fused_relu" : 0,
      "fused_tanh" : 0,
      "debug_info" : "conv2d_8",
      "pad_fill_mode" : 0,
      "pad_b" : 0,
      "pad_l" : 0,
      "top" : "conv2d_8_output",
      "K" : 16,
      "blob_biases" : 201,
      "name" : "conv2d_8",
      "has_batch_norm" : 0,
      "type" : "convolution",
      "n_groups" : 1,
      "pad_t" : 0,
      "has_biases" : 1,
      "C" : 8,
      "bottom" : "up_sampling2d_3_output",
      "weights" : {

      },
      "Nx" : 1,
      "pad_mode" : 0,
      "pad_value" : 0,
      "Ny" : 1,
      "n_parallel" : 1,
      "blob_weights_f16" : 203
    },
    {
      "weights" : {

      },
      "debug_info" : "concatenate_3",
      "top" : "concatenate_3_output",
      "type" : "concat",
      "name" : "concatenate_3",
      "bottom" : "conv2d_8_output,expanded_conv_project_BN_output"
    },
    {
      "pad_r" : 0,
      "debug_info" : "average_pooling2d_2",
      "pad_fill_mode" : 0,
      "pad_b" : 0,
      "pad_l" : 0,
      "size_x" : 128,
      "top" : "average_pooling2d_2_output",
      "top_shape_style" : 0,
      "stride_x" : 128,
      "avg_or_max" : 0,
      "average_count_exclude_padding" : 1,
      "type" : "pool",
      "name" : "average_pooling2d_2",
      "pad_t" : 0,
      "stride_y" : 72,
      "bottom" : "concatenate_3_output",
      "weights" : {

      },
      "pad_mode" : 2,
      "size_y" : 72,
      "pad_value" : 0
    },
    {
      "pad_r" : 0,
      "fused_relu" : 1,
      "fused_tanh" : 0,
      "debug_info" : "conv2d_9",
      "pad_fill_mode" : 0,
      "pad_b" : 0,
      "pad_l" : 0,
      "top" : "activation_9_output",
      "K" : 16,
      "blob_biases" : 205,
      "name" : "conv2d_9",
      "has_batch_norm" : 0,
      "type" : "convolution",
      "n_groups" : 1,
      "pad_t" : 0,
      "has_biases" : 1,
      "C" : 8,
      "bottom" : "average_pooling2d_2_output",
      "weights" : {

      },
      "Nx" : 1,
      "pad_mode" : 0,
      "pad_value" : 0,
      "Ny" : 1,
      "n_parallel" : 1,
      "blob_weights_f16" : 207
    },
    {
      "pad_r" : 0,
      "fused_relu" : 0,
      "fused_tanh" : 0,
      "debug_info" : "conv2d_10",
      "pad_fill_mode" : 0,
      "pad_b" : 0,
      "pad_l" : 0,
      "top" : "conv2d_10_output",
      "K" : 8,
      "blob_biases" : 209,
      "name" : "conv2d_10",
      "has_batch_norm" : 0,
      "type" : "convolution",
      "n_groups" : 1,
      "pad_t" : 0,
      "has_biases" : 1,
      "C" : 8,
      "bottom" : "activation_9_output",
      "weights" : {

      },
      "Nx" : 1,
      "pad_mode" : 0,
      "pad_value" : 0,
      "Ny" : 1,
      "n_parallel" : 1,
      "blob_weights_f16" : 211
    },
    {
      "bottom" : "conv2d_10_output",
      "weights" : {

      },
      "mode" : 3,
      "debug_info" : "activation_10",
      "top" : "activation_10_output",
      "type" : "activation",
      "name" : "activation_10"
    },
    {
      "bottom" : "activation_10_output,expanded_conv_project_BN_output",
      "alpha" : 1,
      "operation" : 1,
      "weights" : {

      },
      "fused_relu" : 0,
      "debug_info" : "multiply_2",
      "top" : "multiply_2_output",
      "type" : "elementwise",
      "name" : "multiply_2",
      "beta" : 0
    },
    {
      "bottom" : "conv2d_8_output,multiply_2_output",
      "alpha" : 1,
      "operation" : 0,
      "weights" : {

      },
      "fused_relu" : 0,
      "debug_info" : "add_4",
      "top" : "add_4_output",
      "type" : "elementwise",
      "name" : "add_4",
      "beta" : 0
    },
    {
      "pad_r" : 0,
      "fused_relu" : 0,
      "fused_tanh" : 0,
      "debug_info" : "conv2d_11",
      "pad_fill_mode" : 0,
      "pad_b" : 0,
      "pad_l" : 0,
      "top" : "batch_normalization_9_output",
      "K" : 8,
      "blob_biases" : 213,
      "name" : "conv2d_11",
      "has_batch_norm" : 0,
      "type" : "convolution",
      "n_groups" : 1,
      "pad_t" : 0,
      "has_biases" : 1,
      "C" : 8,
      "bottom" : "add_4_output",
      "weights" : {

      },
      "Nx" : 1,
      "pad_mode" : 0,
      "pad_value" : 0,
      "Ny" : 1,
      "n_parallel" : 1,
      "blob_weights_f16" : 215
    },
    {
      "pad_r" : 0,
      "fused_relu" : 1,
      "fused_tanh" : 0,
      "debug_info" : "depthwise_conv2d_5",
      "pad_fill_mode" : 0,
      "pad_b" : 0,
      "pad_l" : 0,
      "top" : "activation_11_output",
      "K" : 8,
      "blob_biases" : 217,
      "name" : "depthwise_conv2d_5",
      "has_batch_norm" : 0,
      "type" : "convolution",
      "n_groups" : 8,
      "pad_t" : 0,
      "has_biases" : 1,
      "C" : 8,
      "bottom" : "batch_normalization_9_output",
      "weights" : {

      },
      "Nx" : 3,
      "pad_mode" : 1,
      "pad_value" : 0,
      "Ny" : 3,
      "n_parallel" : 1,
      "blob_weights_f16" : 219
    },
    {
      "pad_r" : 0,
      "fused_relu" : 1,
      "fused_tanh" : 0,
      "debug_info" : "conv2d_12",
      "pad_fill_mode" : 0,
      "pad_b" : 0,
      "pad_l" : 0,
      "top" : "activation_12_output",
      "K" : 8,
      "blob_biases" : 221,
      "name" : "conv2d_12",
      "has_batch_norm" : 0,
      "type" : "convolution",
      "n_groups" : 1,
      "pad_t" : 0,
      "has_biases" : 1,
      "C" : 8,
      "bottom" : "activation_11_output",
      "weights" : {

      },
      "Nx" : 1,
      "pad_mode" : 0,
      "pad_value" : 0,
      "Ny" : 1,
      "n_parallel" : 1,
      "blob_weights_f16" : 223
    },
    {
      "pad_r" : 0,
      "fused_relu" : 1,
      "fused_tanh" : 0,
      "debug_info" : "depthwise_conv2d_6",
      "pad_fill_mode" : 0,
      "pad_b" : 0,
      "pad_l" : 0,
      "top" : "activation_13_output",
      "K" : 8,
      "blob_biases" : 225,
      "name" : "depthwise_conv2d_6",
      "has_batch_norm" : 0,
      "type" : "convolution",
      "n_groups" : 8,
      "pad_t" : 0,
      "has_biases" : 1,
      "C" : 8,
      "bottom" : "activation_12_output",
      "weights" : {

      },
      "Nx" : 3,
      "pad_mode" : 1,
      "pad_value" : 0,
      "Ny" : 3,
      "n_parallel" : 1,
      "blob_weights_f16" : 227
    },
    {
      "pad_r" : 0,
      "fused_relu" : 0,
      "fused_tanh" : 0,
      "debug_info" : "conv2d_13",
      "pad_fill_mode" : 0,
      "pad_b" : 0,
      "pad_l" : 0,
      "top" : "conv2d_13_output",
      "K" : 64,
      "blob_biases" : 229,
      "name" : "conv2d_13",
      "has_batch_norm" : 0,
      "type" : "convolution",
      "n_groups" : 1,
      "pad_t" : 0,
      "has_biases" : 1,
      "C" : 1,
      "bottom" : "add_1_output",
      "weights" : {

      },
      "Nx" : 1,
      "pad_mode" : 0,
      "pad_value" : 0,
      "Ny" : 1,
      "n_parallel" : 1,
      "blob_weights_f16" : 231
    },
    {
      "bottom" : "batch_normalization_9_output,activation_13_output",
      "alpha" : 1,
      "operation" : 0,
      "weights" : {

      },
      "fused_relu" : 0,
      "debug_info" : "add_5",
      "top" : "add_5_output",
      "type" : "elementwise",
      "name" : "add_5",
      "beta" : 0
    },
    {
      "pad_r" : 0,
      "fused_relu" : 0,
      "fused_tanh" : 0,
      "debug_info" : "conv2d_transpose_1",
      "pad_fill_mode" : 0,
      "pad_b" : 0,
      "pad_l" : 0,
      "top" : "conv2d_transpose_1_output",
      "K" : 1,
      "stride_x" : 8,
      "name" : "conv2d_transpose_1",
      "deconv_out_height" : 144,
      "has_batch_norm" : 0,
      "type" : "deconvolution",
      "n_groups" : 1,
      "pad_t" : 0,
      "stride_y" : 8,
      "has_biases" : 0,
      "C" : 1,
      "bottom" : "conv2d_13_output",
      "weights" : {

      },
      "Nx" : 16,
      "pad_mode" : 1,
      "deconv_out_width" : 256,
      "pad_value" : 0,
      "Ny" : 16,
      "n_parallel" : 1,
      "blob_weights_f16" : 233
    },
    {
      "pad_r" : 0,
      "fused_relu" : 0,
      "fused_tanh" : 0,
      "debug_info" : "conv2d_transpose_2",
      "pad_fill_mode" : 0,
      "pad_b" : 0,
      "pad_l" : 0,
      "top" : "conv2d_transpose_2_output",
      "K" : 8,
      "stride_x" : 2,
      "name" : "conv2d_transpose_2",
      "deconv_out_height" : 144,
      "has_batch_norm" : 0,
      "type" : "deconvolution",
      "n_groups" : 1,
      "pad_t" : 0,
      "stride_y" : 2,
      "has_biases" : 0,
      "C" : 1,
      "bottom" : "add_5_output",
      "weights" : {

      },
      "Nx" : 4,
      "pad_mode" : 1,
      "deconv_out_width" : 256,
      "pad_value" : 0,
      "Ny" : 4,
      "n_parallel" : 1,
      "blob_weights_f16" : 235
    },
    {
      "bottom" : "conv2d_transpose_1_output,conv2d_transpose_2_output",
      "alpha" : 1,
      "operation" : 0,
      "weights" : {

      },
      "fused_relu" : 0,
      "debug_info" : "add_6",
      "top" : "add_6_output",
      "type" : "elementwise",
      "name" : "add_6",
      "beta" : 0
    },
    {
      "bottom" : "add_6_output",
      "weights" : {

      },
      "mode" : 3,
      "debug_info" : "output1",
      "top" : "output1",
      "type" : "activation",
      "name" : "output1",
      "attributes" : {
        "is_output" : 1
      }
    }
  ]
}