{
  "storage" : "model.espresso.weights",
  "analyses" : {

  },
  "properties" : {

  },
  "format_version" : 200,
  "layers" : [
    {
      "weights" : {

      },
      "debug_info" : "concatenate_1",
      "top" : "concatenate_1_output",
      "type" : "concat",
      "name" : "concatenate_1",
      "bottom" : "input1,input2"
    },
    {
      "pad_r" : 0,
      "fused_relu" : 0,
      "fused_tanh" : 0,
      "debug_info" : "conv2d_downs__0_1",
      "pad_fill_mode" : 0,
      "pad_b" : 0,
      "pad_l" : 0,
      "top" : "BN_down_0_1_output",
      "K" : 6,
      "blob_biases" : 1,
      "name" : "conv2d_downs__0_1",
      "has_batch_norm" : 0,
      "type" : "convolution",
      "n_groups" : 1,
      "pad_t" : 0,
      "has_biases" : 1,
      "C" : 8,
      "bottom" : "concatenate_1_output",
      "weights" : {

      },
      "Nx" : 3,
      "pad_mode" : 1,
      "pad_value" : 0,
      "Ny" : 3,
      "n_parallel" : 1,
      "blob_weights_f16" : 3
    },
    {
      "bottom" : "BN_down_0_1_output",
      "weights" : {
        "params_prelu" : 5
      },
      "mode" : 4,
      "debug_info" : "prelu_downs_0_1",
      "top" : "prelu_downs_0_1_output",
      "type" : "activation",
      "name" : "prelu_downs_0_1"
    },
    {
      "pad_r" : 0,
      "debug_info" : "max_pooling2d_1",
      "pad_fill_mode" : 0,
      "pad_b" : 0,
      "pad_l" : 0,
      "size_x" : 2,
      "top" : "max_pooling2d_1_output",
      "top_shape_style" : 0,
      "stride_x" : 2,
      "avg_or_max" : 1,
      "average_count_exclude_padding" : 1,
      "type" : "pool",
      "name" : "max_pooling2d_1",
      "pad_t" : 0,
      "stride_y" : 2,
      "bottom" : "prelu_downs_0_1_output",
      "weights" : {

      },
      "pad_mode" : 2,
      "size_y" : 2,
      "pad_value" : 0
    },
    {
      "pad_r" : 0,
      "fused_relu" : 0,
      "fused_tanh" : 0,
      "debug_info" : "conv2d_downs_1_1",
      "pad_fill_mode" : 0,
      "pad_b" : 0,
      "pad_l" : 0,
      "top" : "BN_down_1_1_output",
      "K" : 8,
      "blob_biases" : 7,
      "name" : "conv2d_downs_1_1",
      "has_batch_norm" : 0,
      "type" : "convolution",
      "n_groups" : 1,
      "pad_t" : 0,
      "has_biases" : 1,
      "C" : 16,
      "bottom" : "max_pooling2d_1_output",
      "weights" : {

      },
      "Nx" : 3,
      "pad_mode" : 1,
      "pad_value" : 0,
      "Ny" : 3,
      "n_parallel" : 1,
      "blob_weights_f16" : 9
    },
    {
      "bottom" : "BN_down_1_1_output",
      "weights" : {
        "params_prelu" : 11
      },
      "mode" : 4,
      "debug_info" : "prelu_downs_1_1",
      "top" : "prelu_downs_1_1_output",
      "type" : "activation",
      "name" : "prelu_downs_1_1"
    },
    {
      "pad_r" : 0,
      "debug_info" : "max_pooling2d_2",
      "pad_fill_mode" : 0,
      "pad_b" : 0,
      "pad_l" : 0,
      "size_x" : 2,
      "top" : "max_pooling2d_2_output",
      "top_shape_style" : 0,
      "stride_x" : 2,
      "avg_or_max" : 1,
      "average_count_exclude_padding" : 1,
      "type" : "pool",
      "name" : "max_pooling2d_2",
      "pad_t" : 0,
      "stride_y" : 2,
      "bottom" : "prelu_downs_1_1_output",
      "weights" : {

      },
      "pad_mode" : 2,
      "size_y" : 2,
      "pad_value" : 0
    },
    {
      "pad_r" : 0,
      "fused_relu" : 0,
      "fused_tanh" : 0,
      "debug_info" : "conv2d_downs_2_1",
      "pad_fill_mode" : 0,
      "pad_b" : 0,
      "pad_l" : 0,
      "top" : "BN_down_2_1_output",
      "K" : 16,
      "blob_biases" : 13,
      "name" : "conv2d_downs_2_1",
      "has_batch_norm" : 0,
      "type" : "convolution",
      "n_groups" : 1,
      "pad_t" : 0,
      "has_biases" : 1,
      "C" : 32,
      "bottom" : "max_pooling2d_2_output",
      "weights" : {

      },
      "Nx" : 3,
      "pad_mode" : 1,
      "pad_value" : 0,
      "Ny" : 3,
      "n_parallel" : 1,
      "blob_weights_f16" : 15
    },
    {
      "bottom" : "BN_down_2_1_output",
      "weights" : {
        "params_prelu" : 17
      },
      "mode" : 4,
      "debug_info" : "prelu_downs_2_1",
      "top" : "prelu_downs_2_1_output",
      "type" : "activation",
      "name" : "prelu_downs_2_1"
    },
    {
      "pad_r" : 0,
      "debug_info" : "max_pooling2d_3",
      "pad_fill_mode" : 0,
      "pad_b" : 0,
      "pad_l" : 0,
      "size_x" : 2,
      "top" : "max_pooling2d_3_output",
      "top_shape_style" : 0,
      "stride_x" : 2,
      "avg_or_max" : 1,
      "average_count_exclude_padding" : 1,
      "type" : "pool",
      "name" : "max_pooling2d_3",
      "pad_t" : 0,
      "stride_y" : 2,
      "bottom" : "prelu_downs_2_1_output",
      "weights" : {

      },
      "pad_mode" : 2,
      "size_y" : 2,
      "pad_value" : 0
    },
    {
      "pad_r" : 0,
      "fused_relu" : 0,
      "fused_tanh" : 0,
      "debug_info" : "conv2d_downs_3_1",
      "pad_fill_mode" : 0,
      "pad_b" : 0,
      "pad_l" : 0,
      "top" : "BN_down_3_1_output",
      "K" : 32,
      "blob_biases" : 19,
      "name" : "conv2d_downs_3_1",
      "has_batch_norm" : 0,
      "type" : "convolution",
      "n_groups" : 1,
      "pad_t" : 0,
      "has_biases" : 1,
      "C" : 64,
      "bottom" : "max_pooling2d_3_output",
      "weights" : {

      },
      "Nx" : 3,
      "pad_mode" : 1,
      "pad_value" : 0,
      "Ny" : 3,
      "n_parallel" : 1,
      "blob_weights_f16" : 21
    },
    {
      "bottom" : "BN_down_3_1_output",
      "weights" : {
        "params_prelu" : 23
      },
      "mode" : 4,
      "debug_info" : "prelu_downs_3_1",
      "top" : "prelu_downs_3_1_output",
      "type" : "activation",
      "name" : "prelu_downs_3_1"
    },
    {
      "pad_r" : 0,
      "debug_info" : "max_pooling2d_4",
      "pad_fill_mode" : 0,
      "pad_b" : 0,
      "pad_l" : 0,
      "size_x" : 2,
      "top" : "max_pooling2d_4_output",
      "top_shape_style" : 0,
      "stride_x" : 2,
      "avg_or_max" : 1,
      "average_count_exclude_padding" : 1,
      "type" : "pool",
      "name" : "max_pooling2d_4",
      "pad_t" : 0,
      "stride_y" : 2,
      "bottom" : "prelu_downs_3_1_output",
      "weights" : {

      },
      "pad_mode" : 2,
      "size_y" : 2,
      "pad_value" : 0
    },
    {
      "pad_r" : 0,
      "fused_relu" : 0,
      "fused_tanh" : 0,
      "debug_info" : "conv2d_downs_4_1",
      "pad_fill_mode" : 0,
      "pad_b" : 0,
      "pad_l" : 0,
      "top" : "BN_down_4_1_output",
      "K" : 64,
      "blob_biases" : 25,
      "name" : "conv2d_downs_4_1",
      "has_batch_norm" : 0,
      "type" : "convolution",
      "n_groups" : 1,
      "pad_t" : 0,
      "has_biases" : 1,
      "C" : 128,
      "bottom" : "max_pooling2d_4_output",
      "weights" : {

      },
      "Nx" : 3,
      "pad_mode" : 1,
      "pad_value" : 0,
      "Ny" : 3,
      "n_parallel" : 1,
      "blob_weights_f16" : 27
    },
    {
      "bottom" : "BN_down_4_1_output",
      "weights" : {
        "params_prelu" : 29
      },
      "mode" : 4,
      "debug_info" : "prelu_downs_4_1",
      "top" : "prelu_downs_4_1_output",
      "type" : "activation",
      "name" : "prelu_downs_4_1"
    },
    {
      "pad_r" : 0,
      "fused_relu" : 0,
      "fused_tanh" : 0,
      "debug_info" : "conv2d_down_s1",
      "pad_fill_mode" : 0,
      "pad_b" : 0,
      "pad_l" : 0,
      "top" : "BN_down_s1_output",
      "K" : 128,
      "blob_biases" : 31,
      "name" : "conv2d_down_s1",
      "has_batch_norm" : 0,
      "type" : "convolution",
      "n_groups" : 1,
      "pad_t" : 0,
      "has_biases" : 1,
      "C" : 64,
      "bottom" : "prelu_downs_4_1_output",
      "weights" : {

      },
      "Nx" : 3,
      "pad_mode" : 1,
      "pad_value" : 0,
      "Ny" : 3,
      "n_parallel" : 1,
      "blob_weights_f16" : 33
    },
    {
      "bottom" : "BN_down_s1_output",
      "weights" : {
        "params_prelu" : 35
      },
      "mode" : 4,
      "debug_info" : "prelu_down_s1",
      "top" : "prelu_down_s1_output",
      "type" : "activation",
      "name" : "prelu_down_s1"
    },
    {
      "pad_r" : 0,
      "fused_relu" : 0,
      "fused_tanh" : 0,
      "debug_info" : "conv2d_down_s2",
      "pad_fill_mode" : 0,
      "pad_b" : 0,
      "pad_l" : 0,
      "top" : "BN_down_s2_output",
      "K" : 64,
      "blob_biases" : 37,
      "name" : "conv2d_down_s2",
      "has_batch_norm" : 0,
      "type" : "convolution",
      "n_groups" : 1,
      "pad_t" : 0,
      "has_biases" : 1,
      "C" : 64,
      "bottom" : "prelu_down_s1_output",
      "weights" : {

      },
      "Nx" : 3,
      "pad_mode" : 1,
      "pad_value" : 0,
      "Ny" : 3,
      "n_parallel" : 1,
      "blob_weights_f16" : 39
    },
    {
      "bottom" : "BN_down_s2_output",
      "weights" : {
        "params_prelu" : 41
      },
      "mode" : 4,
      "debug_info" : "prelu_down_s2",
      "top" : "prelu_down_s2_output",
      "type" : "activation",
      "name" : "prelu_down_s2"
    },
    {
      "pad_r" : 0,
      "fused_relu" : 0,
      "fused_tanh" : 0,
      "debug_info" : "conv2d_down_s3",
      "pad_fill_mode" : 0,
      "pad_b" : 0,
      "pad_l" : 0,
      "top" : "BN_down_s3_output",
      "K" : 64,
      "blob_biases" : 43,
      "name" : "conv2d_down_s3",
      "has_batch_norm" : 0,
      "type" : "convolution",
      "n_groups" : 1,
      "pad_t" : 0,
      "has_biases" : 1,
      "C" : 64,
      "bottom" : "prelu_down_s2_output",
      "weights" : {

      },
      "Nx" : 3,
      "pad_mode" : 1,
      "pad_value" : 0,
      "Ny" : 3,
      "n_parallel" : 1,
      "blob_weights_f16" : 45
    },
    {
      "bottom" : "BN_down_s3_output",
      "weights" : {
        "params_prelu" : 47
      },
      "mode" : 4,
      "debug_info" : "prelu_down_s3",
      "top" : "prelu_down_s3_output",
      "type" : "activation",
      "name" : "prelu_down_s3"
    },
    {
      "pad_r" : 0,
      "fused_relu" : 0,
      "fused_tanh" : 0,
      "debug_info" : "conv2d_down_s4",
      "pad_fill_mode" : 0,
      "pad_b" : 0,
      "pad_l" : 0,
      "top" : "BN_down_s4_output",
      "K" : 64,
      "blob_biases" : 49,
      "name" : "conv2d_down_s4",
      "has_batch_norm" : 0,
      "type" : "convolution",
      "n_groups" : 1,
      "pad_t" : 0,
      "has_biases" : 1,
      "C" : 64,
      "bottom" : "prelu_down_s3_output",
      "weights" : {

      },
      "Nx" : 3,
      "pad_mode" : 1,
      "pad_value" : 0,
      "Ny" : 3,
      "n_parallel" : 1,
      "blob_weights_f16" : 51
    },
    {
      "bottom" : "BN_down_s4_output",
      "weights" : {
        "params_prelu" : 53
      },
      "mode" : 4,
      "debug_info" : "prelu_down_s4",
      "top" : "prelu_down_s4_output",
      "type" : "activation",
      "name" : "prelu_down_s4"
    },
    {
      "pad_r" : 0,
      "debug_info" : "max_pooling2d_5",
      "pad_fill_mode" : 0,
      "pad_b" : 0,
      "pad_l" : 0,
      "size_x" : 2,
      "top" : "max_pooling2d_5_output",
      "top_shape_style" : 0,
      "stride_x" : 2,
      "avg_or_max" : 1,
      "average_count_exclude_padding" : 1,
      "type" : "pool",
      "name" : "max_pooling2d_5",
      "pad_t" : 0,
      "stride_y" : 2,
      "bottom" : "prelu_down_s4_output",
      "weights" : {

      },
      "pad_mode" : 2,
      "size_y" : 2,
      "pad_value" : 0
    },
    {
      "bottom" : "max_pooling2d_5_output",
      "weights" : {

      },
      "mode" : 1,
      "nd_axis" : 0,
      "debug_info" : "flatten1",
      "top" : "flatten1_output",
      "type" : "flatten",
      "name" : "flatten1"
    },
    {
      "nB" : 1024,
      "top" : "dense128_s_output",
      "has_biases" : 1,
      "blob_weights_f16" : 57,
      "nC" : 32,
      "weights" : {

      },
      "type" : "inner_product",
      "has_relu" : 0,
      "bottom" : "flatten1_output",
      "blob_biases" : 55,
      "has_tanh" : 0,
      "debug_info" : "dense128_s",
      "name" : "dense128_s",
      "has_prelu" : 0
    },
    {
      "nB" : 32,
      "top" : "dense1024_s_output",
      "has_biases" : 1,
      "blob_weights_f16" : 61,
      "nC" : 1024,
      "weights" : {

      },
      "type" : "inner_product",
      "has_relu" : 0,
      "bottom" : "dense128_s_output",
      "blob_biases" : 59,
      "has_tanh" : 0,
      "debug_info" : "dense1024_s",
      "name" : "dense1024_s",
      "has_prelu" : 0
    },
    {
      "name" : "reshape_1",
      "weights" : {

      },
      "dst_w" : 4,
      "version" : 1,
      "dst_n" : 0,
      "type" : "reshape",
      "dst_h" : 4,
      "mode" : 1,
      "bottom" : "dense1024_s_output",
      "debug_info" : "reshape_1",
      "dst_seq" : 1,
      "dst_k" : 64,
      "top" : "reshape_1_output"
    },
    {
      "top" : "up_sampling2d_1_output",
      "use_fractional_scale_factors" : false,
      "weights" : {

      },
      "fractional_scaling_factor_y" : 1,
      "type" : "upsample",
      "scaling_factor_x" : 2,
      "mode" : 0,
      "align_corners" : 0,
      "bottom" : "reshape_1_output",
      "debug_info" : "up_sampling2d_1",
      "fractional_scaling_factor_x" : 1,
      "is_legacy_mode" : 1,
      "name" : "up_sampling2d_1",
      "scaling_factor_y" : 2
    },
    {
      "pad_r" : 0,
      "fused_relu" : 0,
      "fused_tanh" : 0,
      "debug_info" : "conv2d_up_s1",
      "pad_fill_mode" : 0,
      "pad_b" : 0,
      "pad_l" : 0,
      "top" : "BN_up_s1_output",
      "K" : 64,
      "blob_biases" : 63,
      "name" : "conv2d_up_s1",
      "has_batch_norm" : 0,
      "type" : "convolution",
      "n_groups" : 1,
      "pad_t" : 0,
      "has_biases" : 1,
      "C" : 64,
      "bottom" : "up_sampling2d_1_output",
      "weights" : {

      },
      "Nx" : 3,
      "pad_mode" : 1,
      "pad_value" : 0,
      "Ny" : 3,
      "n_parallel" : 1,
      "blob_weights_f16" : 65
    },
    {
      "bottom" : "BN_up_s1_output",
      "weights" : {
        "params_prelu" : 67
      },
      "mode" : 4,
      "debug_info" : "prelu_up_s1",
      "top" : "prelu_up_s1_output",
      "type" : "activation",
      "name" : "prelu_up_s1"
    },
    {
      "pad_r" : 0,
      "fused_relu" : 0,
      "fused_tanh" : 0,
      "debug_info" : "conv2d_up_s2",
      "pad_fill_mode" : 0,
      "pad_b" : 0,
      "pad_l" : 0,
      "top" : "BN_up_s2_output",
      "K" : 64,
      "blob_biases" : 69,
      "name" : "conv2d_up_s2",
      "has_batch_norm" : 0,
      "type" : "convolution",
      "n_groups" : 1,
      "pad_t" : 0,
      "has_biases" : 1,
      "C" : 64,
      "bottom" : "prelu_up_s1_output",
      "weights" : {

      },
      "Nx" : 3,
      "pad_mode" : 1,
      "pad_value" : 0,
      "Ny" : 3,
      "n_parallel" : 1,
      "blob_weights_f16" : 71
    },
    {
      "bottom" : "BN_up_s2_output",
      "weights" : {
        "params_prelu" : 73
      },
      "mode" : 4,
      "debug_info" : "prelu_up_s2",
      "top" : "prelu_up_s2_output",
      "type" : "activation",
      "name" : "prelu_up_s2"
    },
    {
      "pad_r" : 0,
      "fused_relu" : 0,
      "fused_tanh" : 0,
      "debug_info" : "conv2d_up_s3",
      "pad_fill_mode" : 0,
      "pad_b" : 0,
      "pad_l" : 0,
      "top" : "BN_up_s3_output",
      "K" : 64,
      "blob_biases" : 75,
      "name" : "conv2d_up_s3",
      "has_batch_norm" : 0,
      "type" : "convolution",
      "n_groups" : 1,
      "pad_t" : 0,
      "has_biases" : 1,
      "C" : 64,
      "bottom" : "prelu_up_s2_output",
      "weights" : {

      },
      "Nx" : 3,
      "pad_mode" : 1,
      "pad_value" : 0,
      "Ny" : 3,
      "n_parallel" : 1,
      "blob_weights_f16" : 77
    },
    {
      "bottom" : "BN_up_s3_output",
      "weights" : {
        "params_prelu" : 79
      },
      "mode" : 4,
      "debug_info" : "prelu_up_s3",
      "top" : "prelu_up_s3_output",
      "type" : "activation",
      "name" : "prelu_up_s3"
    },
    {
      "pad_r" : 0,
      "fused_relu" : 0,
      "fused_tanh" : 0,
      "debug_info" : "conv2d_up_s4",
      "pad_fill_mode" : 0,
      "pad_b" : 0,
      "pad_l" : 0,
      "top" : "BN_up_s4_output",
      "K" : 64,
      "blob_biases" : 81,
      "name" : "conv2d_up_s4",
      "has_batch_norm" : 0,
      "type" : "convolution",
      "n_groups" : 1,
      "pad_t" : 0,
      "has_biases" : 1,
      "C" : 64,
      "bottom" : "prelu_up_s3_output",
      "weights" : {

      },
      "Nx" : 3,
      "pad_mode" : 1,
      "pad_value" : 0,
      "Ny" : 3,
      "n_parallel" : 1,
      "blob_weights_f16" : 83
    },
    {
      "bottom" : "BN_up_s4_output",
      "weights" : {
        "params_prelu" : 85
      },
      "mode" : 4,
      "debug_info" : "prelu_up_s4",
      "top" : "prelu_up_s4_output",
      "type" : "activation",
      "name" : "prelu_up_s4"
    },
    {
      "pad_r" : 0,
      "fused_relu" : 0,
      "fused_tanh" : 0,
      "debug_info" : "conv2d_ups_0_1",
      "pad_fill_mode" : 0,
      "pad_b" : 0,
      "pad_l" : 0,
      "top" : "BN_up_0_1_output",
      "K" : 64,
      "blob_biases" : 87,
      "name" : "conv2d_ups_0_1",
      "has_batch_norm" : 0,
      "type" : "convolution",
      "n_groups" : 1,
      "pad_t" : 0,
      "has_biases" : 1,
      "C" : 128,
      "bottom" : "prelu_up_s4_output",
      "weights" : {

      },
      "Nx" : 3,
      "pad_mode" : 1,
      "pad_value" : 0,
      "Ny" : 3,
      "n_parallel" : 1,
      "blob_weights_f16" : 89
    },
    {
      "bottom" : "BN_up_0_1_output",
      "weights" : {
        "params_prelu" : 91
      },
      "mode" : 4,
      "debug_info" : "prelu_ups_0_1",
      "top" : "prelu_ups_0_1_output",
      "type" : "activation",
      "name" : "prelu_ups_0_1"
    },
    {
      "top" : "up_sampling2d_2_output",
      "use_fractional_scale_factors" : false,
      "weights" : {

      },
      "fractional_scaling_factor_y" : 1,
      "type" : "upsample",
      "scaling_factor_x" : 2,
      "mode" : 0,
      "align_corners" : 0,
      "bottom" : "prelu_ups_0_1_output",
      "debug_info" : "up_sampling2d_2",
      "fractional_scaling_factor_x" : 1,
      "is_legacy_mode" : 1,
      "name" : "up_sampling2d_2",
      "scaling_factor_y" : 2
    },
    {
      "pad_r" : 0,
      "fused_relu" : 0,
      "fused_tanh" : 0,
      "debug_info" : "conv2d_ups_1_1",
      "pad_fill_mode" : 0,
      "pad_b" : 0,
      "pad_l" : 0,
      "top" : "BN_up_1_1_output",
      "K" : 128,
      "blob_biases" : 93,
      "name" : "conv2d_ups_1_1",
      "has_batch_norm" : 0,
      "type" : "convolution",
      "n_groups" : 1,
      "pad_t" : 0,
      "has_biases" : 1,
      "C" : 64,
      "bottom" : "up_sampling2d_2_output",
      "weights" : {

      },
      "Nx" : 3,
      "pad_mode" : 1,
      "pad_value" : 0,
      "Ny" : 3,
      "n_parallel" : 1,
      "blob_weights_f16" : 95
    },
    {
      "bottom" : "BN_up_1_1_output",
      "weights" : {
        "params_prelu" : 97
      },
      "mode" : 4,
      "debug_info" : "prelu_ups_1_1",
      "top" : "prelu_ups_1_1_output",
      "type" : "activation",
      "name" : "prelu_ups_1_1"
    },
    {
      "top" : "up_sampling2d_3_output",
      "use_fractional_scale_factors" : false,
      "weights" : {

      },
      "fractional_scaling_factor_y" : 1,
      "type" : "upsample",
      "scaling_factor_x" : 2,
      "mode" : 0,
      "align_corners" : 0,
      "bottom" : "prelu_ups_1_1_output",
      "debug_info" : "up_sampling2d_3",
      "fractional_scaling_factor_x" : 1,
      "is_legacy_mode" : 1,
      "name" : "up_sampling2d_3",
      "scaling_factor_y" : 2
    },
    {
      "pad_r" : 0,
      "fused_relu" : 0,
      "fused_tanh" : 0,
      "debug_info" : "conv2d_ups_2_1",
      "pad_fill_mode" : 0,
      "pad_b" : 0,
      "pad_l" : 0,
      "top" : "BN_up_2_1_output",
      "K" : 64,
      "blob_biases" : 99,
      "name" : "conv2d_ups_2_1",
      "has_batch_norm" : 0,
      "type" : "convolution",
      "n_groups" : 1,
      "pad_t" : 0,
      "has_biases" : 1,
      "C" : 32,
      "bottom" : "up_sampling2d_3_output",
      "weights" : {

      },
      "Nx" : 3,
      "pad_mode" : 1,
      "pad_value" : 0,
      "Ny" : 3,
      "n_parallel" : 1,
      "blob_weights_f16" : 101
    },
    {
      "bottom" : "BN_up_2_1_output",
      "weights" : {
        "params_prelu" : 103
      },
      "mode" : 4,
      "debug_info" : "prelu_ups_2_1",
      "top" : "prelu_ups_2_1_output",
      "type" : "activation",
      "name" : "prelu_ups_2_1"
    },
    {
      "top" : "up_sampling2d_4_output",
      "use_fractional_scale_factors" : false,
      "weights" : {

      },
      "fractional_scaling_factor_y" : 1,
      "type" : "upsample",
      "scaling_factor_x" : 2,
      "mode" : 0,
      "align_corners" : 0,
      "bottom" : "prelu_ups_2_1_output",
      "debug_info" : "up_sampling2d_4",
      "fractional_scaling_factor_x" : 1,
      "is_legacy_mode" : 1,
      "name" : "up_sampling2d_4",
      "scaling_factor_y" : 2
    },
    {
      "pad_r" : 0,
      "fused_relu" : 0,
      "fused_tanh" : 0,
      "debug_info" : "conv2d_ups_3_1",
      "pad_fill_mode" : 0,
      "pad_b" : 0,
      "pad_l" : 0,
      "top" : "BN_up_3_1_output",
      "K" : 32,
      "blob_biases" : 105,
      "name" : "conv2d_ups_3_1",
      "has_batch_norm" : 0,
      "type" : "convolution",
      "n_groups" : 1,
      "pad_t" : 0,
      "has_biases" : 1,
      "C" : 16,
      "bottom" : "up_sampling2d_4_output",
      "weights" : {

      },
      "Nx" : 3,
      "pad_mode" : 1,
      "pad_value" : 0,
      "Ny" : 3,
      "n_parallel" : 1,
      "blob_weights_f16" : 107
    },
    {
      "bottom" : "BN_up_3_1_output",
      "weights" : {
        "params_prelu" : 109
      },
      "mode" : 4,
      "debug_info" : "prelu_ups_3_1",
      "top" : "prelu_ups_3_1_output",
      "type" : "activation",
      "name" : "prelu_ups_3_1"
    },
    {
      "top" : "up_sampling2d_5_output",
      "use_fractional_scale_factors" : false,
      "weights" : {

      },
      "fractional_scaling_factor_y" : 1,
      "type" : "upsample",
      "scaling_factor_x" : 2,
      "mode" : 0,
      "align_corners" : 0,
      "bottom" : "prelu_ups_3_1_output",
      "debug_info" : "up_sampling2d_5",
      "fractional_scaling_factor_x" : 1,
      "is_legacy_mode" : 1,
      "name" : "up_sampling2d_5",
      "scaling_factor_y" : 2
    },
    {
      "pad_r" : 0,
      "fused_relu" : 0,
      "fused_tanh" : 0,
      "debug_info" : "conv2d_ups_4_1",
      "pad_fill_mode" : 0,
      "pad_b" : 0,
      "pad_l" : 0,
      "top" : "BN_up_4_1_output",
      "K" : 16,
      "blob_biases" : 111,
      "name" : "conv2d_ups_4_1",
      "has_batch_norm" : 0,
      "type" : "convolution",
      "n_groups" : 1,
      "pad_t" : 0,
      "has_biases" : 1,
      "C" : 8,
      "bottom" : "up_sampling2d_5_output",
      "weights" : {

      },
      "Nx" : 3,
      "pad_mode" : 1,
      "pad_value" : 0,
      "Ny" : 3,
      "n_parallel" : 1,
      "blob_weights_f16" : 113
    },
    {
      "bottom" : "BN_up_4_1_output",
      "weights" : {
        "params_prelu" : 115
      },
      "mode" : 4,
      "debug_info" : "prelu_ups_4_1",
      "top" : "prelu_ups_4_1_output",
      "type" : "activation",
      "name" : "prelu_ups_4_1"
    },
    {
      "pad_r" : 0,
      "fused_relu" : 0,
      "fused_tanh" : 0,
      "debug_info" : "finalConv",
      "pad_fill_mode" : 0,
      "pad_b" : 0,
      "pad_l" : 0,
      "top" : "finalConv_output",
      "K" : 8,
      "blob_biases" : 117,
      "name" : "finalConv",
      "has_batch_norm" : 0,
      "type" : "convolution",
      "n_groups" : 1,
      "pad_t" : 0,
      "has_biases" : 1,
      "C" : 4,
      "bottom" : "prelu_ups_4_1_output",
      "weights" : {

      },
      "Nx" : 3,
      "pad_mode" : 1,
      "pad_value" : 0,
      "Ny" : 3,
      "n_parallel" : 1,
      "blob_weights_f16" : 119
    },
    {
      "bottom" : "finalConv_output",
      "attributes" : {
        "is_output" : 1
      },
      "weights" : {

      },
      "debug_info" : "activation_1",
      "top" : "output1",
      "C" : 2,
      "type" : "softmax",
      "name" : "activation_1"
    }
  ]
}